test/core/mnist.tflite (tflite, 40096 bytes, 8 tensors)

fuse_attr_7 i1 [32, 3, 3, 32]
00000000: de1d 0509 1b06 063d 2421 0ff3 f50e fae8
00000010: e4f7 062e dd01 0cf8 edee 1923 0fe2 04f2
00000020: 3215 151f 04e5 02eb 0a13 f308 00ff 16c8
00000030: d0e6 fe05 0617 d721 f908 ecf9 f0e2 ed09
00000040: daf1 fc11 f104 3118 0ded e003 0dfe 1edb
00000050: e4d5 f40b c437 21f4 1509 2921 edea 1c04
00000060: 24f3 20eb 07f4 2def dce8 38e6 f712 2cdd
00000070: 0a11 001d 042e ee16 0115 3131 fb33 d3fb
00000080: 08f2 fc34 c2e8 cf08 e1f7 01c9 fe0f 15f1
00000090: 232f 0a05 0f1d ec0e 1216 2f22 02fd 1410
000000a0: ee0d f609 eaed e11f f1bf f1d8 d424 3009
000000b0: 26dc e3fb e91e 0717 f8ff 022e 04e0 2ad8
000000c0: 1d22 0d17 06bb e627 2ded edcb 0223 0d19
000000d0: f008 f61f da20 0c00 f402 2510 00e0 01ed
000000e0: fd12 f6e7 f7fb fc22 eafa 02eb 1f7f 27ee
000000f0: 0007 022a e2ff 0702 e23b 12e6 04f2 0eda
-34 29 5 9 27 6 6 61
36 33 15 -13 -11 14 -6 -24
-28 -9 6 46 -35 1 12 -8
-19 -18 25 35 15 -30 4 -14
50 21 21 31 4 -27 2 -21
10 19 -13 8 0 -1 22 -56
-48 -26 -2 5 6 23 -41 33
-7 8 -20 -7 -16 -30 -19 9
-38 -15 -4 17 -15 4 49 24
13 -19 -32 3 13 -2 30 -37
-28 -43 -12 11 -60 55 33 -12
21 9 41 33 -19 -22 28 4
36 -13 32 -21 7 -12 45 -17
-36 -24 56 -26 -9 18 44 -35
10 17 0 29 4 46 -18 22
1 21 49 49 -5 51 -45 -5
8 -14 -4 52 -62 -24 -49 8
-31 -9 1 -55 -2 15 21 -15
35 47 10 5 15 29 -20 14
18 22 47 34 2 -3 20 16
-18 13 -10 9 -22 -19 -31 31
-15 -65 -15 -40 -44 36 48 9
38 -36 -29 -5 -23 30 7 23
-8 -1 2 46 4 -32 42 -40
29 34 13 23 6 -69 -26 39
45 -19 -19 -53 2 35 13 25
-16 8 -10 31 -38 32 12 0
-12 2 37 16 0 -32 1 -19
-3 18 -10 -25 -9 -5 -4 34
-22 -6 2 -21 31 127 39 -18
0 7 2 42 -30 -1 7 2
-30 59 18 -26 4 -14 14 -38

fuse_attr_2 i1 [16, 3, 3, 16]
00000000: eb30 defc db0b 330d 3552 340a 4bec afdd
00000010: fddf fa2f db75 10c7 2316 f5df 0cdf aac1
00000020: edfe f0f6 cf27 38c6 2629 a0c1 05cd f4fa
00000030: 18ed 172b f544 f20a 07c7 102e 601f 260a
00000040: 00e6 113a becf fcef d1ac ecd0 0fed 0023
00000050: d8ba dfe4 fdfd b9d8 2c80 01dd 2a20 dffb
00000060: ef06 3303 1ae4 2ea3 db48 10d0 c2dc 33f2
00000070: fad3 b909 0037 30fe f9c2 bbe5 f6dc 5648
00000080: 24e3 28da 1911 e7e5 b2dc 2117 fa35 6cf8
00000090: cfd9 04e7 1a09 e7d4 0bc3 e70e ff09 fab0
000000a0: fc19 bba3 cadc 0cd7 2df8 f105 d4fe dcdd
000000b0: 03fb 16e3 c8da 3a09 e613 c1a8 154a 2bd3
000000c0: 14f4 1ccd 1e25 0c06 f4e1 bb32 e02b 472e
000000d0: d82b 13e5 2421 e8bb 993a eab3 9fa4 d7bc
000000e0: d42a d482 c6ef 07d8 fdd1 d808 f4bf da04
000000f0: e3a7 b106 8b09 ea11 f505 80df c1dc fd25
-21 48 -34 -4 -37 11 51 13
53 82 52 10 75 -20 -81 -35
-3 -33 -6 47 -37 117 16 -57
35 22 -11 -33 12 -33 -86 -63
-19 -2 -16 -10 -49 39 56 -58
38 41 -96 -63 5 -51 -12 -6
24 -19 23 43 -11 68 -14 10
7 -57 16 46 96 31 38 10
0 -26 17 58 -66 -49 -4 -17
-47 -84 -20 -48 15 -19 0 35
-40 -70 -33 -28 -3 -3 -71 -40
44 -128 1 -35 42 32 -33 -5
-17 6 51 3 26 -28 46 -93
-37 72 16 -48 -62 -36 51 -14
-6 -45 -71 9 0 55 48 -2
-7 -62 -69 -27 -10 -36 86 72
36 -29 40 -38 25 17 -25 -27
-78 -36 33 23 -6 53 108 -8
-49 -39 4 -25 26 9 -25 -44
11 -61 -25 14 -1 9 -6 -80
-4 25 -69 -93 -54 -36 12 -41
45 -8 -15 5 -44 -2 -36 -35
3 -5 22 -29 -56 -38 58 9
-26 19 -63 -88 21 74 43 -45
20 -12 28 -51 30 37 12 6
-12 -31 -69 50 -32 43 71 46
-40 43 19 -27 36 33 -24 -69
-103 58 -22 -77 -97 -92 -41 -68
-44 42 -44 -126 -58 -17 7 -40
-3 -47 -40 8 -12 -65 -38 4
-29 -89 -79 6 -117 9 -22 17
-11 5 -128 -33 -63 -36 -3 37

fuse_attr_3 i1 [16, 3, 3, 16]
00000000: 4cc3 bd2e bf26 344c 0825 1255 fad7 ffe5
00000010: 23e8 11f3 d424 e5fd bff0 c506 e5f0 0703
00000020: f4df fa1b 1236 2414 06fe f0fc 18eb e8f4
00000030: 4b07 efb5 4313 d72a f94a 39d1 d4e0 3ffa
00000040: f296 dc0a 004d 7ffc de58 2ad7 e850 1702
00000050: f2fd eef4 db63 16f3 d4d6 2028 0527 0cd0
00000060: 1108 e2f8 54fe 4fcc 032b f910 062c 27f9
00000070: 5e15 d221 111f 4ce8 0e28 f702 1d0b 24c5
00000080: c21b cff0 3cfa 1ba5 111b f523 e733 f0e9
00000090: 13fd d800 7cf6 bcf9 dc1f 1dc9 0c05 f0ed
000000a0: 201c ed02 560f 0ed1 ecec 2ef7 e706 3916
000000b0: c702 dfdd fad0 0001 ecdc d5f0 00d1 0724
000000c0: f7f0 040c 34da e115 13f4 3b03 101d fbff
000000d0: ee38 1e08 51db b1f7 d723 26c2 e6f2 1ecb
000000e0: 1805 fdc1 7fe9 f9f8 df03 07bf c3c6 2215
000000f0: b3db 1e0b 231c d206 f0b1 310b e503 10f2
76 -61 -67 46 -65 38 52 76
8 37 18 85 -6 -41 -1 -27
35 -24 17 -13 -44 36 -27 -3
-65 -16 -59 6 -27 -16 7 3
-12 -33 -6 27 18 54 36 20
6 -2 -16 -4 24 -21 -24 -12
75 7 -17 -75 67 19 -41 42
-7 74 57 -47 -44 -32 63 -6
-14 -106 -36 10 0 77 127 -4
-34 88 42 -41 -24 80 23 2
-14 -3 -18 -12 -37 99 22 -13
-44 -42 32 40 5 39 12 -48
17 8 -30 -8 84 -2 79 -52
3 43 -7 16 6 44 39 -7
94 21 -46 33 17 31 76 -24
14 40 -9 2 29 11 36 -59
-62 27 -49 -16 60 -6 27 -91
17 27 -11 35 -25 51 -16 -23
19 -3 -40 0 124 -10 -68 -7
-36 31 29 -55 12 5 -16 -19
32 28 -19 2 86 15 14 -47
-20 -20 46 -9 -25 6 57 22
-57 2 -33 -35 -6 -48 0 1
-20 -36 -43 -16 0 -47 7 36
-9 -16 4 12 52 -38 -31 21
19 -12 59 3 16 29 -5 -1
-18 56 30 8 81 -37 -79 -9
-41 35 38 -62 -26 -14 30 -53
24 5 -3 -63 127 -23 -7 -8
-33 3 7 -65 -61 -58 34 21
-77 -37 30 11 35 28 -46 6
-16 -79 49 11 -27 3 16 -14

head_fc.1_attr i1 [10, 32] scale=0.00981256 zero_point=0
00000000: f8fa e957 5317 29cc f8e5 ec26 2345 f800
00000010: f914 eef6 f0c4 e5e3 e1f1 e2e2 f8e4 17f2
00000020: f5ff e3e6 e7f3 10f0 e831 e4fc eef3 dcf8
00000030: 2cf4 3cee 4e0b d7de 6ee7 e6e6 fff2 eefa
00000040: f5f7 3005 cb39 4515 02ed ddfd faf9 16c8
00000050: e659 e41d e922 00ec f7f8 f823 d7f5 e940
00000060: 4f18 ebe4 0ce7 0146 f6e3 e7e6 16e0 fdf9
00000070: d9e7 f6e6 de60 10e8 f4f5 f305 071a 44ef
00000080: de04 d809 e9fb e8f0 0024 22e7 dae0 07dc
00000090: 29f7 1325 28ed 2e03 eaf9 7f05 e4f1 f0eb
000000a0: 422a ded9 1ee4 ff10 14f4 1bee 1012 dd44
000000b0: f307 ede9 f9da d244 e530 dcff 21f5 0206
000000c0: f90d 0949 f8f2 fbe7 1215 6a0a eee7 d9e6
000000d0: 06f6 f1e8 06f9 c908 e81a e0de e0de e556
000000e0: e6eb f3da fc37 d7fe dc09 e4ee 04ea 4628
000000f0: d5f4 471a ecdd f8cd 1afb 0d58 1400 02d2
-0.07850048 -0.05887536 -0.22568887 0.8536927 0.81444246 0.22568887 0.40231496 -0.51025313
-0.07850048 -0.26493913 -0.1962512 0.37287727 0.3434396 0.6770666 -0.07850048 0.0
-0.068687916 0.1962512 -0.17662609 -0.0981256 -0.15700096 -0.5887536 -0.26493913 -0.28456423
-0.30418935 -0.1471884 -0.2943768 -0.2943768 -0.07850048 -0.27475166 0.22568887 -0.13737583
-0.107938156 -0.00981256 -0.28456423 -0.25512657 -0.245314 -0.12756328 0.15700096 -0.15700096
-0.23550144 0.48081544 -0.27475166 -0.03925024 -0.17662609 -0.12756328 -0.35325217 -0.07850048
0.43175262 -0.11775072 0.5887536 -0.17662609 0.76537967 0.107938156 -0.40231496 -0.33362705
1.0793816 -0.245314 -0.25512657 -0.25512657 -0.00981256 -0.13737583 -0.17662609 -0.05887536
-0.107938156 -0.08831304 0.47100288 0.0490628 -0.52006567 0.5593159 0.6770666 0.20606376
0.01962512 -0.18643863 -0.3434396 -0.02943768 -0.05887536 -0.068687916 0.21587631 -0.5495033
-0.25512657 0.87331784 -0.27475166 0.28456423 -0.22568887 0.33362705 0.0 -0.1962512
-0.08831304 -0.07850048 -0.07850048 0.3434396 -0.40231496 -0.107938156 -0.22568887 0.62800384
0.77519226 0.23550144 -0.20606376 -0.27475166 0.11775072 -0.245314 0.00981256 0.6868792
-0.0981256 -0.28456423 -0.245314 -0.25512657 0.21587631 -0.31400192 -0.02943768 -0.068687916
-0.38268983 -0.245314 -0.0981256 -0.25512657 -0.33362705 0.94200575 0.15700096 -0.23550144
-0.11775072 -0.107938156 -0.12756328 0.0490628 0.068687916 0.25512657 0.6672541 -0.16681352
-0.33362705 0.03925024 -0.3925024 0.08831304 -0.22568887 -0.0490628 -0.23550144 -0.15700096
0.0 0.35325217 0.33362705 -0.245314 -0.37287727 -0.31400192 0.068687916 -0.35325217
0.40231496 -0.08831304 0.18643863 0.3630647 0.3925024 -0.18643863 0.45137775 0.02943768
-0.21587631 -0.068687916 1.2461951 0.0490628 -0.27475166 -0.1471884 -0.15700096 -0.20606376
0.64762896 0.41212752 -0.33362705 -0.38268983 0.2943768 -0.27475166 -0.00981256 0.15700096
0.1962512 -0.11775072 0.26493913 -0.17662609 0.15700096 0.17662609 -0.3434396 0.6672541
-0.12756328 0.068687916 -0.18643863 -0.22568887 -0.068687916 -0.37287727 -0.45137775 0.6672541
-0.26493913 0.47100288 -0.35325217 -0.00981256 0.32381448 -0.107938156 0.01962512 0.05887536
-0.068687916 0.12756328 0.08831304 0.7163169 -0.07850048 -0.13737583 -0.0490628 -0.245314
0.17662609 0.20606376 1.0401313 0.0981256 -0.17662609 -0.245314 -0.38268983 -0.25512657
0.05887536 -0.0981256 -0.1471884 -0.23550144 0.05887536 -0.068687916 -0.5396908 0.07850048
-0.23550144 0.25512657 -0.31400192 -0.33362705 -0.31400192 -0.33362705 -0.26493913 0.8438802
-0.25512657 -0.20606376 -0.12756328 -0.37287727 -0.03925024 0.5396908 -0.40231496 -0.01962512
-0.35325217 0.08831304 -0.27475166 -0.17662609 0.03925024 -0.21587631 0.6868792 0.3925024
-0.4219401 -0.11775072 0.69669175 0.25512657 -0.1962512 -0.3434396 -0.07850048 -0.50044054
0.25512657 -0.0490628 0.12756328 0.86350524 0.1962512 0.0 0.01962512 -0.45137775

fuse_attr_6 i1 [32, 3, 3, 32]
00000000: 66e6 46ff 13e1 daec f615 3de3 1b40 15e8
00000010: 31cc 04da df0b 3f14 e0e8 e324 2ef5 0d23
00000020: f402 daf3 d2f7 f3d9 fbdd d517 183d e32f
00000030: cb0a d815 0729 390a 06fd fd04 37c9 f5ee
00000040: 1723 f6dc df05 10c9 ff1d dd29 d219 2242
00000050: 20f4 fe49 1618 efc8 4116 d6f1 afd7 0942
00000060: 1538 1ed4 09d8 e7ac 71f6 132b f1f8 fa15
00000070: fdfb f7f4 0958 0a17 e2e4 d7e6 30be 0201
00000080: 23e5 ff6f ded1 2828 0118 ad7c 321f d1e1
00000090: 023c bafc 470d eaf9 1aee fe14 2ade eb30
000000a0: 3ce4 dce1 05ca 0129 f917 da21 ea14 b7e9
000000b0: ac36 3e32 fd20 1123 ee29 d7f3 1dfd 80d7
000000c0: 162a d8c8 02a2 d7cd d1f8 5b48 2310 c7b4
000000d0: fcf2 bd08 d31d e2ed 2b40 08d9 2f11 df0c
000000e0: 5102 4e99 dcca ca13 08b8 fd6e dffc 0df0
000000f0: d6f3 0f2b 0b4f fe09 6548 f755 1ef6 dff4
102 -26 70 -1 19 -31 -38 -20
-10 21 61 -29 27 64 21 -24
49 -52 4 -38 -33 11 63 20
-32 -24 -29 36 46 -11 13 35
-12 2 -38 -13 -46 -9 -13 -39
-5 -35 -43 23 24 61 -29 47
-53 10 -40 21 7 41 57 10
6 -3 -3 4 55 -55 -11 -18
23 35 -10 -36 -33 5 16 -55
-1 29 -35 41 -46 25 34 66
32 -12 -2 73 22 24 -17 -56
65 22 -42 -15 -81 -41 9 66
21 56 30 -44 9 -40 -25 -84
113 -10 19 43 -15 -8 -6 21
-3 -5 -9 -12 9 88 10 23
-30 -28 -41 -26 48 -66 2 1
35 -27 -1 111 -34 -47 40 40
1 24 -83 124 50 31 -47 -31
2 60 -70 -4 71 13 -22 -7
26 -18 -2 20 42 -34 -21 48
60 -28 -36 -31 5 -54 1 41
-7 23 -38 33 -22 20 -73 -23
-84 54 62 50 -3 32 17 35
-18 41 -41 -13 29 -3 -128 -41
22 42 -40 -56 2 -94 -41 -51
-47 -8 91 72 35 16 -57 -76
-4 -14 -67 8 -45 29 -30 -19
43 64 8 -39 47 17 -33 12
81 2 78 -103 -36 -54 -54 19
8 -72 -3 110 -33 -4 13 -16
-42 -13 15 43 11 79 -2 9
101 72 -9 85 30 -10 -33 -12

fuse_attr_1 i1 [16, 3, 3, 1]
00000000: 1d80 ef12 c13b b6d8 05b3 0024 7c5d 1a01
00000010: 2780 7fc4 8540 c5a2 6552 0088 fb98 be50
00000020: 23d4 b381 1646 f055 eb82 7f0f bf7f 404a
00000030: f6d6 0732 c639 2c13 7f4c 182f efed af80
00000040: d7fa abc8 5f8a 2071 7f50 31da bf9a c8d1
00000050: 127f e908 331a 12cf e5c2 87fb 7fce 4538
00000060: 337f 21fa badc fde5 f311 e280 3e02 b8be
00000070: a8aa 8027 35fe c995 0fe7 d60c 477f e913
00000080: b02c 7f46 c62a d856 7503 f45f 804d 5bf4
29 -128 -17 18 -63 59 -74 -40
5 -77 0 36 124 93 26 1
39 -128 127 -60 -123 64 -59 -94
101 82 0 -120 -5 -104 -66 80
35 -44 -77 -127 22 70 -16 85
-21 -126 127 15 -65 127 64 74
-10 -42 7 50 -58 57 44 19
127 76 24 47 -17 -19 -81 -128
-41 -6 -85 -56 95 -118 32 113
127 80 49 -38 -65 -102 -56 -47
18 127 -23 8 51 26 18 -49
-27 -62 -121 -5 127 -50 69 56
51 127 33 -6 -70 -36 -3 -27
-13 17 -30 -128 62 2 -72 -66
-88 -86 -128 39 53 -2 -55 -107
15 -25 -42 12 71 127 -23 19
-80 44 127 70 -58 42 -40 86
117 3 -12 95 -128 77 91 -12

fuse_attr_4 i1 [16, 3, 3, 16]
00000000: 0722 5cfa 00e3 c420 1bf7 f5b5 c11d 281d
00000010: ea51 2aea eec7 f1e4 20cf fce3 291f 35d9
00000020: db43 09c9 e6f1 e8c0 0d1a 4be1 1502 e6cf
00000030: 11e7 0e10 1fc4 0813 d826 013e e6df 12d2
00000040: bcf2 cad2 fb13 e2d4 f6d1 f636 dfc6 030b
00000050: 9816 1291 ffbc cbde c859 cc57 d5b9 e5ef
00000060: d7cc 261f 2bdb 23f7 81f4 d51b eae8 ffd5
00000070: bce6 11fb 56ea 12e8 de27 bfe1 dca2 f8dd
00000080: f4f0 d000 2bb1 dd15 003f 0310 1b05 ff05
00000090: d6d7 3a44 ffd7 b9b3 c6bf d40f 0ed7 0efb
000000a0: 9add 65e8 c9dd ab05 fd16 9b16 b1f6 37ec
000000b0: f5ee fcdb 0cab 32e8 91ce 441b 3c10 ef20
000000c0: d9ec 1ce6 fa31 fa03 4b3e 0321 1507 0e25
000000d0: deb1 03b5 d0d7 caf5 d8a3 12ad 1827 fa0d
000000e0: 033e faaa e0c1 29d4 e5ed 0908 01c1 efd2
000000f0: e0f9 e061 c3cb 48c7 eaef 07a2 83c4 fcc1
7 34 92 -6 0 -29 -60 32
27 -9 -11 -75 -63 29 40 29
-22 81 42 -22 -18 -57 -15 -28
32 -49 -4 -29 41 31 53 -39
-37 67 9 -55 -26 -15 -24 -64
13 26 75 -31 21 2 -26 -49
17 -25 14 16 31 -60 8 19
-40 38 1 62 -26 -33 18 -46
-68 -14 -54 -46 -5 19 -30 -44
-10 -47 -10 54 -33 -58 3 11
-104 22 18 -111 -1 -68 -53 -34
-56 89 -52 87 -43 -71 -27 -17
-41 -52 38 31 43 -37 35 -9
-127 -12 -43 27 -22 -24 -1 -43
-68 -26 17 -5 86 -22 18 -24
-34 39 -65 -31 -36 -94 -8 -35
-12 -16 -48 0 43 -79 -35 21
0 63 3 16 27 5 -1 5
-42 -41 58 68 -1 -41 -71 -77
-58 -65 -44 15 14 -41 14 -5
-102 -35 101 -24 -55 -35 -85 5
-3 22 -101 22 -79 -10 55 -20
-11 -18 -4 -37 12 -85 50 -24
-111 -50 68 27 60 16 -17 32
-39 -20 28 -26 -6 49 -6 3
75 62 3 33 21 7 14 37
-34 -79 3 -75 -48 -41 -54 -11
-40 -93 18 -83 24 39 -6 13
3 62 -6 -86 -32 -63 41 -44
-27 -19 9 8 1 -63 -17 -46
-32 -7 -32 97 -61 -53 72 -57
-22 -17 7 -94 -125 -60 -4 -63

fuse_attr_5 i1 [32, 3, 3, 16]
00000000: 162a 26e6 02cd 49fe 11f2 b80c 9ff7 07ed
00000010: 22c3 f70d fbec fd16 f5ed 2dee fb0d 01dd
00000020: e8fb 13df 060b 024e c6a6 331b 3332 09e6
00000030: d93a b10e 81ad 18cd c120 23c0 0616 cf17
00000040: b535 2731 25a1 fa08 bdd3 ab29 e6ff 171c
00000050: 4146 7423 f89a 3344 e329 cc26 92b6 1ff4
00000060: 212f f228 47fa d935 bff3 3cf5 eef3 0af2
00000070: 150c 4e22 fe14 e81b c1a6 0c31 b9cd f7a6
00000080: 47fc ffa2 dede 1807 17e2 c6f7 d604 511b
00000090: 30f6 2a0b 15d1 9a20 0056 04f4 27ac 3de4
000000a0: 9f6a 0f32 1ea6 367f d63c 6e07 2904 2cd8
000000b0: e127 2062 f6ee 27df 12fc 55db f1e1 1f16
000000c0: 17bb 2412 e7d5 e9e8 cf31 112e c9f4 2950
000000d0: f7f3 3553 c435 33cd 190d 420e e136 1c18
000000e0: 0199 59e8 fe35 0b13 201d 28d8 08f1 f905
000000f0: 4924 20ec fb12 030a df0b d69e dd23 23fc
22 42 38 -26 2 -51 73 -2
17 -14 -72 12 -97 -9 7 -19
34 -61 -9 13 -5 -20 -3 22
-11 -19 45 -18 -5 13 1 -35
-24 -5 19 -33 6 11 2 78
-58 -90 51 27 51 50 9 -26
-39 58 -79 14 -127 -83 24 -51
-63 32 35 -64 6 22 -49 23
-75 53 39 49 37 -95 -6 8
-67 -45 -85 41 -26 -1 23 28
65 70 116 35 -8 -102 51 68
-29 41 -52 38 -110 -74 31 -12
33 47 -14 40 71 -6 -39 53
-65 -13 60 -11 -18 -13 10 -14
21 12 78 34 -2 20 -24 27
-63 -90 12 49 -71 -51 -9 -90
71 -4 -1 -94 -34 -34 24 7
23 -30 -58 -9 -42 4 81 27
48 -10 42 11 21 -47 -102 32
0 86 4 -12 39 -84 61 -28
-97 106 15 50 30 -90 54 127
-42 60 110 7 41 4 44 -40
-31 39 32 98 -10 -18 39 -33
18 -4 85 -37 -15 -31 31 22
23 -69 36 18 -25 -43 -23 -24
-49 49 17 46 -55 -12 41 80
-9 -13 53 83 -60 53 51 -51
25 13 66 14 -31 54 28 24
1 -103 89 -24 -2 53 11 19
32 29 40 -40 8 -15 -7 5
73 36 32 -20 -5 18 3 10
-33 11 -42 -98 -35 35 35 -4
